…
      \n        error=torch.normal(0,1,size=16)\n        x=mean + variance*error\n        \n        x=self.decoder(x)\n        return x\n\nmodel = NeuralNetwork().to(device)\nprint(model)","metadata":{"execution":{"iopub.status.busy":"2024-06-06T02:23:47.001083Z","iopub.execute_input":"2024-06-06T02:23:47.001553Z","iopub.status.idle":"2024-06-06T02:23:47.034863Z","shell.execute_reply.started":"2024-06-06T02:23:47.001514Z","shell.execute_reply":"2024-06-06T02:23:47.033524Z"},"trusted":true},"execution_count":44,"outputs":[{"name":"stdout","text":"NeuralNetwork(\n  (encoder): Sequential(\n    (0): Conv2d(3, 64, kernel_size=(3, 3), stride=(1, 1), padding=same)\n    (1): LeakyReLU(negative_slope=0.01)\n    (2): Conv2d(64, 32, kernel_size=(3, 3), stride=(1, 1), padding=same)\n    (3): LeakyReLU(negative_slope=0.01)\n    (4): MaxPool2d(kernel_size=3, stride=3, padding=0, dilation=1, ceil_mode=False)\n    (5): Conv2d(16, 8, kernel_size=(3, 3), stride=(1, 1), padding=same)\n    (6): LeakyReLU(negative_slope=0.01)\n    (7): Conv2d(8, 4, kernel_size=(3, 3), stride=(1, 1), padding=same)\n    (8): MaxPool2d(kernel_size=3, stride=3, padding=0, dilation=1, ceil_mode=False)\n    (9): Flatten(start_dim=1, end_dim=-1)\n  )\n  (feature_generation): Sequential(\n    (0): Linear(in_features=16, out_features=64, bias=True)\n    (1): LeakyReLU(negative_slope=0.01)\n    (2): Linear(in_features=64, out_features=32, bias=True)\n    (3): LeakyReLU(negative_slope=0.01)\n    (4): Linear(in_features=32, out_features=24, bias=True)\n  )\n  (decoder): Sequential()\n  (flatten): Flatten(start_dim=1, end_dim=-1)\n  (linear_relu_stack): Sequential(\n    (0): Linear(in_features=784, out_features=512, bias=True)\n    (1): ReLU()\n    (2): Linear(in_features=512, out_features=512, bias=True)\n    (3): ReLU()\n    (4): Linear(in_features=512, out_features=10, bias=True)\n  )\n)\n","output_type":"stream"}]},{"cell_type":"code","source":"v=\nf=lambda x:np.floo..r(((x-3)/3)+1)\nn=10\nfor _ in range(10-1):\n    print(v)\n    v=f(v)\nv","metadata":{"execution":{"iopub.status.busy":"2024-06-06T03:29:06.360360Z","iopub.execute_input":"2024-06-06T03:29:06.360808Z","iopub.status.idle":"2024-06-06T03:29:06.371467Z","shell.execut
…
